…
th * number of patches) * embedding size to batch size * (band groups length * embedding size) * patch height * patch width before being passed to a series of 2D convolutional transpose and ReLU layers in a downstream decoder network.\nThat decoder network is the core of the downstream task. In a forward pass, it ingests the embeddings, runs them through those layers and computes a loss value with respect to the labels. The loss is back-propagated and the decoder gradually finetunes itself to the downstream dataset. Here’s a peek at the decoder layers:\nModel(\n  (decoder): Sequential(\n    (0): Conv2d(4608, 64, kernel_size=(1, 1), stride=(1, 1))\n    (1): Upsample(scale_factor=2.0, mode='nearest')\n    (2): ConvTranspose2d(64, 32, kernel_size=(3, 3), stride=(1, 1), padding=(1, 1))\n    (3): ReLU(inplace=True)\n    (4): Upsample(scale_factor=2.0, mode='nearest')\n    (5): ConvTranspose2d(32, 16, kernel_size=(3, 3), stride=(1, 1), padding=(1, 1))\n    (6): ReLU(inplace=True)\n    (7): Upsample(scale_factor=2.0, mode='nearest')\n    (8): ConvTranspose2d(16, 8, kernel_size=(3, 3), stride=(1, 1), padding=(1, 1))\n    (9): ReLU(inplace=True)\n    (10): Upsample(scale_factor=2.0, mode='nearest')\n    (11): ConvTranspose2d(8, 1, kernel_size=(3, 3), stride=(1, 1), padding=(1, 1))\n    (12): Upsample(scale_factor=2.0, mode='nearest')\n  )\n)\nNote the absence of an encoder. That is important as this is a finetuning architecture in which the encoder is replaced by the embeddings from the pre-trained Clay model.\nIn comparison, the network we are using to train the downstream task from scratch looks notably different:\nModel(\n  (encoder): Sequential(\n    (0): Conv2d(13, 64, kernel_size=(3, 3), stride=(1, 1), padding=(1, 1))\n    (1): ReLU(inplace=True)\n    (2): Conv2d(64, 64, kernel_size=(3, 3), stride=(1, 1), padding=(1, 1))\n    (3): ReLU(inplace=True)\n    (4): MaxPool2d(kernel_size=2, stride=2, padding=0, dilation=1, ceil_mode=False)\n  )\n  (decoder): Sequential(\n    (0): ConvTranspose2d(64, 128, kernel_size=(3, 3), stride=(1, 1), padding=(1, 1))\n    (1): ReLU(inplace=True)\n    (2): ConvTranspose2d(128, 512, kernel_size=(3, 3), stride=(1, 1), padding=(1, 1))\n    (3): ReLU(inplace=True)\n    (4): Upsample(scale_factor=2.0, mode='nearest')\n    (5): Conv2d(512, 1, kernel_size=(3, 3), stride=(1, 1), padding=(1, 1))\n  )\n)\nIn this architecture, there is a defined encoder since the embeddings aren’t doing the purpose of encoding latent information.\nFor both the finetuning and “from scratch” architectures, we use a binary_cross_entropy_with_logits loss function as this is a binary segmentation problem, and on the predictions, we run sigmoid and max f
…
